…
outputId":"66235fa5-e521-44b7-a95c-376dc2cf7433","colab":{"base_uri":"https://localhost:8080/"}},"source":["model.summary()"],"execution_count":null,"outputs":[{"output_type":"stream","text":["Model: \"functional_5\"\n","_________________________________________________________________\n","Layer (type)                 Output Shape              Param #   \n","=================================================================\n","input_8 (InputLayer)         [(None, 32, 32, 3)]       0         \n","_________________________________________________________________\n","conv2d_25 (Conv2D)           (None, 32, 32, 32)        896       \n","_________________________________________________________________\n","batch_normalization_7 (Batch (None, 32, 32, 32)        128       \n","_________________________________________________________________\n","max_pooling2d_3 (MaxPooling2 (None, 16, 16, 32)        0         \n","_________________________________________________________________\n","conv2d_26 (Conv2D)           (None, 16, 16, 64)        18496     \n","_________________________________________________________________\n","batch_normalization_8 (Batch (None, 16, 16, 64)        256       \n","_________________________________________________________________\n","conv2d_27 (Conv2D)           (None, 16, 16, 64)        36928     \n","_________________________________________________________________\n","batch_normalization_9 (Batch (None, 16, 16, 64)        256       \n","_________________________________________________________________\n","max_pooling2d_4 (MaxPooling2 (None, 8, 8, 64)          0         \n","_________________________________________________________________\n","conv2d_28 (Conv2D)           (None, 8, 8, 128)         73856     \n","_________________________________________________________________\n","batch_normalization_10 (Batc (None, 8, 8, 128)         512       \n","_________________________________________________________________\n","conv2d_29 (Conv2D)           (None, 8, 8, 128)         147584    \n","_________________________________________________________________\n","batch_normalization_11 (Batc (None, 8, 8, 128)         512       \n","_________________________________________________________________\n","max_pooling2d_5 (MaxPooling2 (None, 4, 4, 128)         0         \n","_________________________________________________________________\n","flatten_6 (Flatten)          (None, 2048)              0         \n","_________________________________________________________________\n","dropout_12 (Dropout)         (None, 2048)              0         \n","_________________________________________________________________\n","dense_12 (Dense)             (None, 1024)              2098176   \n","_________________________________________________________________\n","dropout_13 (Dropout)         (None, 1024)              0         \n","_________________________________________________________________\n","dense_13 (Dense)             (None, 10)                10250     \n","=================================================================\n","Total params: 2,387,850\n","Trainable params: 2,387,018\n","Non-trainable params: 832\n","_________________________________________________________________\n"],"name":"stdout"}]},{"cell_type":"code","metadata":{"id":"ssPwnCZ_3luv"},"source":[""],"execution_count":null,"outputs":[]}]}