…
},"outputId":"0c3e4018-ceda-453d-ed2c-fd4f67c1f23c"},"source":["model = Model(inputs=ptm.input, outputs=x)\n","model.summary()"],"execution_count":9,"outputs":[{"output_type":"stream","text":["Model: \"functional_1\"\n","_________________________________________________________________\n","Layer (type)                 Output Shape              Param #   \n","=================================================================\n","input_1 (InputLayer)         [(None, 200, 200, 3)]     0         \n","_________________________________________________________________\n","block1_conv1 (Conv2D)        (None, 200, 200, 64)      1792      \n","_________________________________________________________________\n","block1_conv2 (Conv2D)        (None, 200, 200, 64)      36928     \n","_________________________________________________________________\n","block1_pool (MaxPooling2D)   (None, 100, 100, 64)      0         \n","_________________________________________________________________\n","block2_conv1 (Conv2D)        (None, 100, 100, 128)     73856     \n","_________________________________________________________________\n","block2_conv2 (Conv2D)        (None, 100, 100, 128)     147584    \n","_________________________________________________________________\n","block2_pool (MaxPooling2D)   (None, 50, 50, 128)       0         \n","_________________________________________________________________\n","block3_conv1 (Conv2D)        (None, 50, 50, 256)       295168    \n","_________________________________________________________________\n","block3_conv2 (Conv2D)        (None, 50, 50, 256)       590080    \n","_________________________________________________________________\n","block3_conv3 (Conv2D)        (None, 50, 50, 256)       590080    \n","_________________________________________________________________\n","block3_pool (MaxPooling2D)   (None, 25, 25, 256)       0         \n","_________________________________________________________________\n","block4_conv1 (Conv2D)        (None, 25, 25, 512)       1180160   \n","_________________________________________________________________\n","block4_conv2 (Conv2D)        (None, 25, 25, 512)       2359808   \n","_________________________________________________________________\n","block4_conv3 (Conv2D)        (None, 25, 25, 512)       2359808   \n","_________________________________________________________________\n","block4_pool (MaxPooling2D)   (None, 12, 12, 512)       0         \n","_________________________________________________________________\n","block5_conv1 (Conv2D)        (None, 12, 12, 512)       2359808   \n","_________________________________________________________________\n","block5_conv2 (Conv2D)        (None, 12, 12, 512)       2359808   \n","_________________________________________________________________\n","block5_conv3 (Conv2D)        (None, 12, 12, 512)       2359808   \n","_________________________________________________________________\n","block5_pool (MaxPooling2D)   (None, 6, 6, 512)         0         \n","_________________________________________________________________\n","flatten (Flatten)            (None, 18432)             0         \n","_________________________________________________________________\n","dense (Dense)                (None, 100)               1843300   \n","=================================================================\n","Total params: 16,557,988\n","Trainable params: 1,843,300\n","Non-trainable params: 14,714,688\n","_________________________________________________________________\n"],"name":"stdout"}]},{"cell_type":"code","metadata":{"id":"9V1V5Ek5h48y"},"source":[""],"execution_count":null,"outputs":[]}]}